prueba_api/.dart_tool/chrome-device/Default/optimization_guide_prediction_model_downloads/9feb2898-1adf-4b93-a0dc-413b26720ed7/model.tflite (tflite, 498468 bytes, 160 tensors)

context_transformer_0/bottleneck_input/norm/add;StatefulPartitionedCall/context_transformer_0/bottleneck_input/norm/add;context_transformer_0/bottleneck_input/dense/einsum/Einsum;StatefulPartitionedCall/context_transformer_0/bottleneck_input/dense/einsum/Einsum;context_transformer_0/bottleneck_input/norm/mul;StatefulPartitionedCall/context_transformer_0/bottleneck_input/norm/mul;context_transformer_0/bottleneck_input/dense/add;StatefulPartitionedCall/context_transformer_0/bottleneck_input/dense/add;12614;12616;12618 f4 [32]
00000000: 6a5d 30bb a0f9 803d 3b4b 5dbd 869a febd
00000010: e852 203d 3e56 893d 4c5a a23d bd88 d63d
00000020: d188 3dbd 53da 473b ced4 89bc 9034 89bb
00000030: 5a33 353d f27d c53c 0ab8 46bc 1a22 a43d
00000040: ccbf d93a 654d af3c fac5 db3c 8e07 03bd
00000050: e683 13bd f9ab fc3c 1ada 323c cc4f d5bc
00000060: 2c08 d6ba 3c8f 0d3e 30ed 943d b46f 023e
00000070: fc70 80bd 6245 05bd f51d 05be c206 3f3d
-0.0026911148 0.06297612 -0.054026823 -0.12431817 0.039141566 0.067059025 0.07927379 0.104752995
-0.046273056 0.0030495122 -0.016825106 -0.004187174 0.044238426 0.024107907 -0.012128839 0.08014317
0.0016612946 0.02139921 0.026827801 -0.031989627 -0.03601446 0.030843722 0.010916257 -0.026039027
-0.001632934 0.13824171 0.072718024 0.12737924 -0.0627155 -0.03253687 -0.12999709 0.046637304

context_transformer_1/bottleneck_input/norm/add;StatefulPartitionedCall/context_transformer_1/bottleneck_input/norm/add;context_transformer_0/bottleneck_input/dense/einsum/Einsum;StatefulPartitionedCall/context_transformer_0/bottleneck_input/dense/einsum/Einsum;context_transformer_1/bottleneck_input/norm/mul;StatefulPartitionedCall/context_transformer_1/bottleneck_input/norm/mul;context_transformer_1/bottleneck_input/dense/add;StatefulPartitionedCall/context_transformer_1/bottleneck_input/dense/add;context_transformer_1/bottleneck_input/dense/einsum/Einsum;StatefulPartitionedCall/context_transformer_1/bottleneck_input/dense/einsum/Einsum;12706;12708;12710 f4 [32]
00000000: ae1d 98bd 82cd 26be 8b50 e13d 039f 04bc
00000010: 8d7f df3d c812 993d 879f cc3c db87 e7b9
00000020: fb92 bfbd 4ae4 23bd 161b 40bd da5d d7bc
00000030: 5e30 0d3e 85b0 b3bd dab4 8cbd 1afb 233d
00000040: b62e d8bd 1e4d 0abf 4387 9abd cb89 303d
00000050: 2c30 023e 6454 723e 9675 b5bd 6c42 ecbd
00000060: 788f 0fbe 36e4 b6bc 72a8 6abe d6d1 113e
00000070: 1b7f f23d c36c 04be ec70 94bd a88a eb3d
-0.07427536 -0.16289333 0.110016905 -0.008094552 0.10913 0.07474285 0.024978412 -0.00044160974
-0.09354206 -0.040012635 -0.04690083 -0.02628987 0.13787982 -0.08773903 -0.06870432 0.04003439
-0.105557844 -0.5402392 -0.075453304 0.04310016 0.12713689 0.23665005 -0.08860318 -0.115361065
-0.14019573 -0.022325616 -0.2291582 0.14240202 0.1184065 -0.12932114 -0.07248101 0.11501056

mention_transformer_0/bottleneck_input/norm/add;StatefulPartitionedCall/mention_transformer_0/bottleneck_input/norm/add;sequential_1/dense_3/Tensordot/shape;StatefulPartitionedCall/sequential_1/dense_3/Tensordot/shape;mention_transformer_0/bottleneck_input/norm/mul;StatefulPartitionedCall/mention_transformer_0/bottleneck_input/norm/mul;mention_transformer_0/bottleneck_input/dense/add;StatefulPartitionedCall/mention_transformer_0/bottleneck_input/dense/add;mention_transformer_0/bottleneck_input/dense/einsum/Einsum;StatefulPartitionedCall/mention_transformer_0/bottleneck_input/dense/einsum/Einsum;12810;12812;12814 f4 [32]
00000000: eed3 18bd 14ab aa3e e3a6 92bd a265 20be
00000010: 9cde 913e 9e3c ca3d 2d64 94bd fab7 51bd
00000020: 2ecf 11be 3017 3c3e c630 403e 8b3c 88bd
00000030: f54b 2a3e 3ca6 773e 1e9b 1e3e 5888 78bd
00000040: 50f6 7f3e c009 1d3e 8ef9 073e d066 17bb
00000050: b9d8 8bbd e8bd b53d e866 a33e a603 383c
00000060: 1aa2 563b 20e2 29be f28e ebbd a202 15bd
00000070: 5978 cbbc 101c c8bc 86d8 7fbd e663 3abe
-0.037311487 0.33333647 -0.07160737 -0.1566377 0.2849015 0.09874843 -0.072456695 -0.051200844
-0.14239189 0.1836822 0.18768606 -0.06652173 0.16630538 0.24184507 0.1548886 -0.060676903
0.24996305 0.1533575 0.13278791 -0.0023102053 -0.06828446 0.08874112 0.3191445 0.011231339
0.0032750429 -0.16590166 -0.11501874 -0.036379464 -0.02483766 -0.024427444 -0.062462352 -0.1820217

mention_transformer_1/bottleneck_input/norm/add;StatefulPartitionedCall/mention_transformer_1/bottleneck_input/norm/add;sequential_1/dense_3/Tensordot/shape;StatefulPartitionedCall/sequential_1/dense_3/Tensordot/shape;mention_transformer_1/bottleneck_input/norm/mul;StatefulPartitionedCall/mention_transformer_1/bottleneck_input/norm/mul;mention_transformer_1/bottleneck_input/dense/add;StatefulPartitionedCall/mention_transformer_1/bottleneck_input/dense/add;mention_transformer_1/bottleneck_input/dense/einsum/Einsum;StatefulPartitionedCall/mention_transformer_1/bottleneck_input/dense/einsum/Einsum;12902;12904;12906 f4 [32]
00000000: 40b3 1abe f4c4 953d ee2d 17be b298 e3bd
00000010: 3422 d8bd 58a5 31bd efef fbbb 623f 1ebd
00000020: d2ba 683c f462 00be 8444 25bd 8712 843d
00000030: 2605 523c a58e 92bd 2b89 2b3e b657 14bd
00000040: 4c0b 8fbe 3fd8 20be 7d0c 323b 921b 373d
00000050: e04c a7bd 74e3 bbbb 2a0a d5bc ca78 3b3c
00000060: 86ed b5bc a7de 72bd 49f2 ad3b d632 e3bc
00000070: 5bb4 873c 6e4b 473d 0465 7fbd 34af 603d
-0.15107441 0.073129565 -0.14763615 -0.11113109 -0.10553399 -0.043370575 -0.0076885144 -0.038634665
0.014204698 -0.12537748 -0.040348545 0.06448846 0.01281861 -0.071561135 0.16751544 -0.03621646
-0.27938306 -0.15707491 0.0027168088 0.044704027 -0.081689596 -0.0057339016 -0.026005823 0.011442373
-0.022207987 -0.05929437 0.0053084237 -0.027734201 0.016565492 0.04865592 -0.062352195 0.054854587

context_transformer_0/attention/value/add;StatefulPartitionedCall/context_transformer_0/attention/value/add;context_transformer_0/attention/value/einsum/Einsum;StatefulPartitionedCall/context_transformer_0/attention/value/einsum/Einsum;12638 f4 [32]
00000000: 7099 46bd 15ad 4fbc 7bd7 093d 4d2b 0d3d
00000010: bdf0 31bb 747b 1d3d d54c cfbb 1884 1b3c
00000020: d944 1b3c af0e 4bbc bd06 433d eba3 cdbd
00000030: 8cc8 0bbd 7497 cebd c939 1a3d ec92 a93c
00000040: 5264 b0bd 1929 3ebd 4c89 253d e719 6dbc
00000050: 5431 5abd ee91 a8bd 9846 94bc e389 3dbd
00000060: 5219 723d 6ccc d33c 7531 b1bd b2a3 61bd
00000070: b264 a0bd c473 afbc 545a efbc 85d8 79bd
-0.048486173 -0.012675543 0.033652764 0.034465123 -0.0027151548 0.038447812 -0.0063262978 0.009491943
0.009476864 -0.012393638 0.047613848 -0.100410305 -0.034126803 -0.10087481 0.037652764 0.02069994
-0.086128846 -0.046425913 0.04041414 -0.014471508 -0.0532697 -0.08230959 -0.018100068 -0.046274077
0.05910618 0.025854312 -0.08652011 -0.055087753 -0.07831706 -0.021417506 -0.029217876 -0.060997505

context_transformer_0/bottleneck_input/norm/mul;StatefulPartitionedCall/context_transformer_0/bottleneck_input/norm/mul;context_transformer_0/bottleneck_input/dense/einsum/Einsum;StatefulPartitionedCall/context_transformer_0/bottleneck_input/dense/einsum/Einsum;context_transformer_0/bottleneck_input/dense/add;StatefulPartitionedCall/context_transformer_0/bottleneck_input/dense/add;12614;12616 f4 [32, 32]
00000000: eceb 2abe 1c62 38bd 836e 783e 6392 85bc
00000010: 371d dd3e 806e 8bbd 4768 50be 1614 efbd
00000020: b92b 52bd c0e1 a83d e86f 1c3d e4ff 213e
00000030: 21e9 9ebd e7c6 5d3e bd75 323e 3627 16bd
00000040: e21b 683e bc69 1d3d e40f c4bd 76b0 e7bd
00000050: 0392 42be 85cd 85bd bca5 473e 7f76 c2bb
00000060: ac0d 94be 08a0 6dbe 5971 1cbd 6518 d33d
00000070: 8010 4ebe b91c 333e 35cc 0a3e 3e90 acbc
00000080: 5f2f 72be 729f 37be 8176 01bd 3903 953d
00000090: 7293 04bd 3317 033e 9eec f9bd e961 cabe
000000a0: 12d4 7f3d 9fea 0c3e b1a4 2dbd 586a 843a
000000b0: 6aa8 493e 73b9 17be c3dd 0d3f f34e 8a3e
000000c0: 4146 28bc 06bc 6c3e e115 9fbd 69c1 4dbd
000000d0: 506f 993d c31c 983e 979b 3c3e 4436 8b3e
000000e0: f0c8 203f 802f 1e3f b71a c43e fba6 b03d
000000f0: 207f 2cbe f3bc e33b 2031 393e bd67 8fbe
00000100: 8d85 74be 4875 93bd 0f7b 08bd 40d9 13be
00000110: 7945 1fbe a277 0b3e 47f6 993e 695b a8bd
00000120: d0b3 05be b5e8 643e 400e 73bd 798a 15be
00000130: fbcb 653e 1741 8e3d 17c1 ddbb 46cb 153f
00000140: 1355 ddbe e9fc 473e 662d a2bc ae46 b73d
00000150: 3006 b8be a388 5abe d02b 6fbe 7aa6 12be
00000160: 2a96 1d3e be04 173e fe50 fbbd 4738 00bf
00000170: faf8 cfbd 24ef 73be b7bb 163e f5d1 833d
00000180: 3700 fcbb 1b50 2f3e 2c79 3f3e 39f1 883e
00000190: d795 5a3e b11f bdbb 8bc9 9cbe 93de 2abd
000001a0: aa73 18be c501 47bf 4f49 52be 5dec c83e
000001b0: 00b2 883e f334 25bf 4cfe 6fbe 6971 8dbd
000001c0: f658 f63e de73 24be 5833 cfbc 4610 4abf
000001d0: 72b2 a73e 1d5d 053f c458 3ebe 2768 17be
000001e0: 68d9 a63d ef82 92be af25 f23d 9a9b 543f
000001f0: 87c5 433e 96be a73e 76ea 14bf e24e bf3e
00000200: 4080 a13d a329 5b3d 3737 4abb 6ccf d73e
00000210: 4aa3 1abe 1ae8 c2bc 0f79 b6be cb95 523d
00000220: b9b1 c4bd 5724 833d cd38 983d 249f e9bd
00000230: a33f 03bd e004 dabd 4f1d 23be 8a5a 46be
00000240: 6571 853e 5bb9 34be e6da 5bbe 3c14 b7be
00000250: 2a51 cb3e 6c06 4c3d 8611 833e e5a1 3cbd
00000260: 0ce2 a9bc c284 15bd 7a62 84be 3c6a d03d
00000270: 945b 8c3d 89f4 593e 71e6 1b3d d293 0d3e
00000280: 6c8c 763d ca7d 55bd 677c e6bc 5b88 ccbd
00000290: 30f3 0e3e 5407 84bd 9d4e bf3c db18 603d
000002a0: ee9e 1c3e dadc fe3d b848 93bd fb9c a5bd
000002b0: 81ca 4fbd b3b7 7c3d 5100 5bbe b305 6d3d
000002c0: 2c21 79be 32cb f9bd 1cc7 833e 2654 ca3d
000002d0: d87f 013b d8c8 9a3d b0a1 03bd 7ca8 d8bb
000002e0: ad87 c4b9 d452 4e3e 1960 803d 5684 52be
000002f0: 4088 363e e7e9 ea3a 00c7 c73d bb6c 723e
00000300: a704 babd b51a d03d 36a6 813d a18e 90be
00000310: dcd0 d5bd 6514 813c bb96 9bbd 20f1 153d
00000320: 1300 2ebc 1106 c13e 535d 9c3e 6210 2cbe
00000330: 7d33 853e ec6f 6e3e 54b3 7a3e 3bce 9bbe
00000340: b182 b53e 089a 753e 65c4 663e 0419 45be
00000350: 96b5 d4be 1df4 9ebe 847c 663d e9a8 ef3e
00000360: 38a6 f6bd f877 03bf 75da 8d3c fe53 ac3e
00000370: 38c7 223e 5b07 cd3e 4e3c a53d 5575 95be
00000380: 8320 ca3e 9ff5 48be f078 50be a142 343e
00000390: 0eb4 d03c 4aef 81bd c8ef dfbd cf55 50be
000003a0: 7ac8 ed3e e7cb c4bd df6f 08bf 68fc 3e3e
000003b0: 88bd 01bf 432c 49be 519c d6be c1be fa3d
000003c0: be98 5fbe 6b15 16be f5a8 2b3d 85f2 7f3e
000003d0: a553 82be 4c01 383e 69ce 0a3e 35ad 07be
000003e0: 0bdd 42be 21dd f83b a3ed 9bbd 81ff 3cbe
000003f0: aa7a 4a3e 4d59 19be 74e7 123e 463a 273e
-0.1669156 -0.04501544 0.24260907 -0.016305154 0.43186352 -0.068081856 -0.20352279 -0.11673753
-0.05131123 0.082461834 0.03819266 0.15820271 -0.077593096 0.21657906 0.17427726 -0.03665849
0.22666886 0.038430914 -0.095733434 -0.11312954 -0.19001012 -0.0653334 0.19496816 -0.005934536
-0.2891668 -0.23205578 -0.038194034 0.10307387 -0.20123482 0.17491426 0.13554461 -0.021064874
-0.23650883 -0.17931917 -0.031607155 0.07276005 -0.032367177 0.12801819 -0.12203334 -0.39527825
0.062458105 0.13761376 -0.04239339 0.0010102494 0.19693151 -0.14816837 0.55416507 0.27013358
-0.010270656 0.231186 -0.07767845 -0.05023328 0.07491934 0.29709443 0.18418728 0.2718984
0.62806606 0.6179123 0.38301632 0.08625599 -0.1684537 0.0069500147 0.18085146 -0.28008834
-0.2387907 -0.07200104 -0.033320483 -0.14438343 -0.15553845 0.13619855 0.30070707 -0.0822056
-0.13056874 0.22354396 -0.05933976 -0.14603604 0.22441094 0.06946009 -0.006767403 0.58513296
-0.4322897 0.19530071 -0.019797038 0.08949028 -0.3594222 -0.21341185 -0.23356557 -0.14321318
0.15389314 0.14747903 -0.122713074 -0.5008587 -0.101549104 -0.23821694 0.14720045 0.064365305
-0.0076904553 0.17120402 0.18698567 0.26746538 0.21346222 -0.0057716 -0.30622515 -0.04171617
-0.14887872 -0.77737075 -0.20535778 0.3924283 0.26698303 -0.6453392 -0.2343685 -0.06906397
0.48114747 -0.16059825 -0.025293037 -0.7893108 0.3275333 0.52095205 -0.18588549 -0.14785825
0.08146936 -0.2861552 0.11823594 0.8304993 0.1911832 0.32762593 -0.5817026 0.3736487
0.0788579 0.053506505 -0.0030855665 0.42150438 -0.15101352 -0.023792315 -0.35639235 0.051412385
-0.096042104 0.06403416 0.07432709 -0.11407307 -0.03204311 -0.10645461 -0.15929149 -0.19370475
0.26063076 -0.17648832 -0.21470222 -0.35757625 0.3971036 0.049810812 0.25599307 -0.046052832
-0.02073767 -0.03650356 -0.25856382 0.101765126 0.06853405 0.21284689 0.038061563 0.1382592
0.06019251 -0.052121915 -0.028135492 -0.09986945 0.13959956 -0.0644671 0.023352915 0.054711204
0.15295002 0.12444468 -0.071916044 -0.08086582 -0.050730232 0.061698627 -0.2138684 0.057866763
-0.2432906 -0.121969596 0.25737846 0.09879331 0.0019760039 0.07557839 -0.03213662 -0.006611882
-0.0003748512 0.20148784 0.06268329 -0.20558295 0.17825413 0.0017922492 0.09754753 0.2367429
-0.090829186 0.10161344 0.0633053 -0.28233817 -0.104402274 0.015756795 -0.07597109 0.036606908
-0.010620135 0.3769994 0.3053995 -0.16803125 0.26015845 0.23284882 0.24482471 -0.3043078
0.35451272 0.2398454 0.22535856 -0.19247824 -0.4154479 -0.3104562 0.05627109 0.46808556
-0.120434225 -0.5135493 0.017316082 0.3365783 0.15896308 0.40044674 0.08068143 -0.2919108
0.3947793 -0.19624947 -0.20358634 0.17603542 0.025476482 -0.06344469 -0.109344065 -0.20345233
0.46442014 -0.09609204 -0.532957 0.18650973 -0.50679827 -0.19645791 -0.41916135 0.12243415
-0.2183561 -0.14656608 0.041909177 0.24994858 -0.2545444 0.17969245 0.13555302 -0.13249667
-0.19029634 0.00759472 -0.07613685 -0.18456842 0.19773355 -0.14975472 0.14346105 0.16330823

context_transformer_1/attention/value/add;StatefulPartitionedCall/context_transformer_1/attention/value/add;context_transformer_0/attention/value/einsum/Einsum;StatefulPartitionedCall/context_transformer_0/attention/value/einsum/Einsum;context_transformer_1/attention/value/einsum/Einsum;StatefulPartitionedCall/context_transformer_1/attention/value/einsum/Einsum;12730 f4 [32]
00000000: 4085 a43d 23c5 103d 8d96 2b3e cc31 5ebe
00000010: c89e 5e3d c1ef d1bc 8500 a33c 0e62 06be
00000020: a0c1 103e ff7d 023e 4aa4 0dbe 843f 61bd
00000030: 4ad5 cabd 5bf6 a83d 9763 05be 699d e1bc
00000040: 23e5 edbc a64a 8b3d 7f98 4a3d ef39 40bd
00000050: 2486 bdbd 3b1f 68bd 4ba7 0bbd 5c11 0dbd
00000060: a5e3 3d3d 20c6 013d 825b 41bd 984d 88bc
00000070: 428a c73d 5c9a 27bd 7fa5 f1bd 39b7 11bd
0.08033228 0.035344254 0.1675665 -0.21698684 0.054350644 -0.025627019 0.019897709 -0.13123342
0.14136362 0.12743376 -0.13832203 -0.054992214 -0.09903963 0.082501136 -0.13026272 -0.02754088
-0.029039925 0.068013474 0.049461838 -0.04693025 -0.09254101 -0.05667041 -0.03409509 -0.034440383
0.046359677 0.031683087 -0.04720641 -0.016638562 0.097431675 -0.040918693 -0.11799144 -0.035575125

context_transformer_1/bottleneck_input/norm/mul;StatefulPartitionedCall/context_transformer_1/bottleneck_input/norm/mul;context_transformer_0/bottleneck_input/dense/einsum/Einsum;StatefulPartitionedCall/context_transformer_0/bottleneck_input/dense/einsum/Einsum;context_transformer_1/bottleneck_input/dense/add;StatefulPartitionedCall/context_transformer_1/bottleneck_input/dense/add;context_transformer_1/bottleneck_input/dense/einsum/Einsum;StatefulPartitionedCall/context_transformer_1/bottleneck_input/dense/einsum/Einsum;12706;12708 f4 [32, 32]
00000000: a52c debd 7c27 22bd 6b88 5e3e 4cb8 50bd
00000010: 92c9 1bbe e23f 27bd 3fe3 90be c9f4 85be
00000020: 8aa7 dabe 3d9d 4ebc 2f09 8e3e fb5f 0cbd
00000030: 4da3 b53e 2c58 653e 6ee0 9a3e 1a52 87bc
00000040: df4e 98be fb82 a63d ac63 073e 648a 1c3e
00000050: 39c5 773d 9187 bc3e b28f 133f 5e93 b03e
00000060: d7f3 f23e 1493 fdbe 2289 1e3e aa95 eabe
00000070: c64c 4f3e 4bd8 4e3e 5661 26bb be00 04be
00000080: 8d93 5dbe 9ede 613e ac4f c23d d268 9bbe
00000090: a535 a9be dedf a3bc 0d76 843e 6b39 cd3e
000000a0: ae0a 80be 2b6b b43e 90d6 883e df54 293e
000000b0: f006 643e 0c47 e03b 5029 563e 0919 8a3d
000000c0: 2737 12be 8a71 8b3e a898 903e 23a4 be3e
000000d0: 6c83 35bf d8c8 cdbe aba4 d5bd 8dc1 0e3d
000000e0: 9c9f 3b3e 6c71 aa3d 7b7d 623e b433 0d3d
000000f0: 9e0c 923e d390 a33d 0757 323e fb23 8bbe
00000100: cefe 8e3e a93d 64be 96c2 83bc d627 793c
00000110: b714 a23d 025c 11be ab73 a6be da84 09bf
00000120: 9e9f 0d3e 8d30 b8bb 8ac1 3c3d c892 ce3c
00000130: 542c 023e 0e20 02be 46a1 f6bd 8aea 7fbc
00000140: 79bb 373e ceb1 73be 4c5b 163e 247a a63c
00000150: 82e9 953e 6274 b93e 9ef0 afbd 53f8 c0be
00000160: ffaa 883e 1243 693d 51bd 713e 2e4b 393c
00000170: 52ac b5be 832d a03e 5b7f 103e 1dde 3e3c
00000180: f4b6 6c3d 320f 33be 3920 0bbd e26d 18bd
00000190: 5bf5 96be 9532 5bbe ed8a b3be 92c5 32be
000001a0: 4205 33bd 7d88 273f d392 e13d 6f87 1b3c
000001b0: a554 31be 8724 fabe 9aa2 b93e 8f2d d9bc
000001c0: d2d0 fb3d 3497 b1be 7864 d4bd 12d2 d9be
000001d0: 5464 273f d341 1c3e a0b0 94bd b407 103e
000001e0: d7ac b9be 2126 8c3e d9e7 88be 1a40 7cbe
000001f0: c87a 123e ce73 dd3e e0bf 4c3e 9d63 963e
00000200: 27e7 a3bd a0a5 b4be 8c96 33be 9aa2 8b3d
00000210: 54b6 3dbd 5e89 123e a3fa c8bc f09e 13bf
00000220: 9ce2 d83c f399 d83e e71a 92be d849 fe3e
00000230: 4158 283e 1584 b63e 806f af3e b380 5c3e
00000240: 338c 9dbe c81a c33d d8d7 b6be 4a83 bc3c
00000250: 8fa8 20bf 1db9 14bd d53f 98bd 6ab2 01bf
00000260: 6bf2 243e ef23 8abe dc5e 9c3d 0965 ea3d
00000270: 9fb6 82bd 3127 863e 918d 553e 2a56 61be
00000280: 419c 43be 0383 213e 923e 583e 96bd 85bc
00000290: e165 97be c55b 503e 9192 0bbe a2f7 60be
000002a0: e0a7 903e 12e5 93be 49f2 babe 2632 4b3e
000002b0: fc6f c13e a3e6 8b3e 46bf bb3d 852f a93e
000002c0: aa6e 3bbe 5ad4 cd3e 5372 673e 0fe9 cdbd
000002d0: b615 d0bd b839 bebd 9a31 033f 2ec6 553e
000002e0: f474 183f 8a71 23bb 5ab0 883e 4e22 533c
000002f0: a41d a73d 25be 1d3d 1325 893d 0d55 a53d
00000300: 6873 813d 5987 73be 8d7d 28bc f284 993c
00000310: faeb cbbb 4619 ee3d c996 13bf 303e f13c
00000320: ab6a 3a3e 6da8 893b fb03 f83d 696f 5abe
00000330: 8a7b b2be 0f21 35bf 3ed7 a8be a63d ee3d
00000340: 244e 89bd 3013 d9bc 674f c43d a04d 9f3c
00000350: d01f 37bd 0f99 043e 48b1 d33c c4b2 01bd
00000360: 56dc 543e eb72 313e 02e5 0a3e 9fff 94be
00000370: ca23 d63d 8721 05be 2d0d a2be 352d 893e
00000380: 7b3f fb3d 35ba d43e a477 bb3d 50ec 38be
00000390: 47bc 07be 278b 213e 3165 b0bd 5529 f23d
000003a0: b771 39be 7f14 943e 6520 8a3b 0878 2abd
000003b0: 172a 573e ba39 c63e 8579 b0bd 1214 09be
000003c0: 3121 773e e2a5 8bbc 27ac 2cbd 320a 3fba
000003d0: 77e6 37bd e5a9 68bc 724d 98bb c1d7 103e
000003e0: 44bf b6be 339a bdbd f7be 23be f206 ba3e
000003f0: 88bb a3bc 9353 603e 1899 b33d 7866 4abe
-0.10848359 -0.039588436 0.21731727 -0.05095701 -0.15213612 -0.040832408 -0.28298375 -0.2616332
-0.42705947 -0.012610731 0.27741382 -0.03427122 0.3547615 0.22396916 0.3024935 -0.016518641
-0.29747674 0.08130451 0.13221616 0.15287167 0.06049082 0.3682218 0.57641137 0.34487432
0.4745166 -0.49526274 0.15482 -0.4581731 0.2024413 0.20199697 -0.0025387607 -0.12890908
-0.21638317 0.22057578 0.094878525 -0.3035341 -0.3304874 -0.02000421 0.25871316 0.4008287
-0.25008148 0.35238013 0.26726198 0.16536282 0.22268271 0.006844407 0.20914197 0.06743056
-0.14278851 0.2723506 0.28241467 0.372346 -0.7090366 -0.40192294 -0.104317985 0.034852553
0.18322605 0.08322415 0.2211818 0.034473136 0.2852525 0.079866074 0.17416011 -0.27175888
0.27928776 -0.22289146 -0.016083997 0.0152072515 0.07914107 -0.14195254 -0.32510123 -0.5371834
0.1383042 -0.005621022 0.04608301 0.025216475 0.12712222 -0.1270754 -0.12042479 -0.015619883
0.17942609 -0.23798296 0.14683264 0.020321913 0.29279715 0.36221606 -0.08590816 -0.37689456
0.2669296 0.05694873 0.23607375 0.011309428 -0.35483032 0.31284723 0.14111082 0.011649636
0.057791665 -0.17486265 -0.033966277 -0.037214167 -0.29484066 -0.21406014 -0.3506693 -0.1745818
-0.043706186 0.6544264 0.110143326 0.009492739 -0.17317446 -0.48855993 0.36256868 -0.026510982
0.12295689 -0.3468567 -0.103707254 -0.42543083 0.65387464 0.15259485 -0.07260251 0.14065439
-0.3626468 0.2737284 -0.26739386 -0.24633828 0.1430465 0.43252414 0.1999507 0.29372874
-0.08003073 -0.35282612 -0.17537898 0.06818123 -0.04631646 0.14310214 -0.024533575 -0.57664394
0.026475243 0.42304954 -0.2853615 0.49665713 0.16439916 0.35647646 0.34264755 0.2153347
-0.30771026 0.095265925 -0.3571155 0.023011822 -0.627572 -0.03630935 -0.0743405 -0.50662863
0.161081 -0.2698054 0.076352805 0.11445052 -0.063824885 0.26201776 0.20854785 -0.22005525
-0.19102575 0.15772633 0.21117619 -0.016325753 -0.29569915 0.20347507 -0.1363013 -0.21969464
0.28253078 -0.28885704 -0.36512974 0.19843349 0.3778075 0.273244 0.09167342 0.33044067
-0.18303934 0.40201074 0.22602205 -0.10054218 -0.10160391 -0.09288353 0.5124756 0.20876381
0.59553456 -0.00249395 0.26697046 0.012886597 0.081599504 0.038511414 0.066965245 0.08072863
0.0632084 -0.237821 -0.01028384 0.018740151 -0.006223199 0.11625914 -0.57651955 0.029448599
0.18204753 0.004200986 0.12110134 -0.21331562 -0.34859878 -0.7075357 -0.32976717 0.11632852
-0.06704357 -0.026498407 0.09585457 0.019446194 -0.044708073 0.12949012 0.02584137 -0.031664625
0.20787176 0.17328994 0.13563922 -0.29101273 0.10456045 -0.13001071 -0.31650677 0.26792303
0.12267967 0.41548315 0.09153679 -0.18058896 -0.13255416 0.15775739 -0.08613051 0.1182429
-0.18109785 0.28921887 0.0042152875 -0.041618377 0.2101215 0.38715917 -0.08616928 -0.13386562
0.24133755 -0.017046873 -0.042156365 -0.0007287591 -0.044897523 -0.014200662 -0.004647904 0.14144804
-0.356928 -0.09257927 -0.15990816 0.36333424 -0.019986883 0.21906881 0.08769435 -0.19765651

mention_transformer_0/attention/value/add;StatefulPartitionedCall/mention_transformer_0/attention/value/add;mention_transformer_0/attention/value/einsum/Einsum;StatefulPartitionedCall/mention_transformer_0/attention/value/einsum/Einsum;12834 f4 [32]
00000000: 7a9f debd e75b 91be 77ca 66be 6989 913d
00000010: ff62 8d3e 9a44 903d 52c8 25bd b8eb 08be
00000020: ea6f 3ebe 4968 eebd 3889 973d 78aa a1be
00000030: 4550 9cbe fbc7 193d 91a0 e2bd 9e6d 013e
00000040: da05 3fbe 9861 aaba 84b9 6b3e bed5 3a3e
00000050: be28 8f3e 4b78 133e dd3d 87bd 68e6 0a3e
00000060: 5f9a 7abe 0e57 553e 65ae d13d 0776 b03e
00000070: 8786 0f3e d605 5c3e bdca 55be cf28 28be
-0.108702615 -0.28390428 -0.22538172 0.07106287 0.2761459 0.07044335 -0.040474243 -0.1337117
-0.1859738 -0.116409846 0.07399219 -0.3157537 -0.3052999 0.03754423 -0.11065782 0.12639472
-0.18654576 -0.0012999056 0.23019987 0.18245599 0.2796077 0.14401357 -0.06603596 0.13564456
-0.2447295 0.2083399 0.10238341 0.34465048 0.14016162 0.21486601 -0.2087812 -0.16421817

mention_transformer_0/bottleneck_input/norm/mul;StatefulPartitionedCall/mention_transformer_0/bottleneck_input/norm/mul;sequential_1/dense_3/Tensordot/shape;StatefulPartitionedCall/sequential_1/dense_3/Tensordot/shape;mention_transformer_0/bottleneck_input/dense/add;StatefulPartitionedCall/mention_transformer_0/bottleneck_input/dense/add;mention_transformer_0/bottleneck_input/dense/einsum/Einsum;StatefulPartitionedCall/mention_transformer_0/bottleneck_input/dense/einsum/Einsum;12810;12812 f4 [32, 32]
00000000: 9712 a939 1f88 da3d e3f3 cebd 3ef4 79bd
00000010: 3b18 ff3c 2566 04bd 2ca2 79be 08b7 0a3d
00000020: 5012 753e 416f a73e defe 54bd 4c36 18bd
00000030: a4da be3e f3be 52be ec46 6bbc 1d7b 133e
00000040: 3da0 853d adfc a7be 5918 9dbc 9f6d ad3d
00000050: f40a 40be 7614 383b 9e12 bb3d ea10 053e
00000060: 4310 bf3d 4ec9 e63b 2a0a 8a3e 2217 023f
00000070: 4497 6fbd 8e5f 343e b05c 19bd 2d31 523e
00000080: f814 913d ef80 5b3b dcf7 893d 05f7 ccbb
00000090: 3f8d 063e 2a17 003e 49f3 0c3e 9472 c23c
000000a0: 590e 9a3d e855 083e 206b c4bc f33e 413d
000000b0: d597 903e 99e8 0fbe 7721 753d c672 a7bc
000000c0: 7673 21bd d4e1 80be 4aac 7b3e 50b3 283e
000000d0: f877 083e 3ec6 c5be 1007 67be a9a6 dfbe
000000e0: 52cb 0cbe 985a 45bc 3350 923e 96cd 53be
000000f0: 8e02 3dbc f846 b33e 2750 08bc 8ebe 22be
00000100: 45c1 053d acfb 4b3e 76da f8bd 9d34 043e
00000110: 78f2 a4be efe5 49be 6a38 bd3d ece2 78bd
00000120: 7bd0 61be 9450 a4bd ab5a 393e fb18 17be
00000130: fa19 7fbd ec1e 21bc 8ab2 d23c 8944 8ebe
00000140: 5f0c d03d 82f2 adbd 6fd3 88be 376e 09be
00000150: a65a 9a3e c79e 433e 6dad bf3e 41e9 7e3e
00000160: 6be6 04be 6b23 7b3d d1fb 8ebb d3ad 553e
00000170: 2309 26be 6f7e a1be df52 77bb 9632 483e
00000180: 2837 813d 16e2 debd 624a 1a3e 379b 9dbb
00000190: 60a0 e13d 165d 3abd 5320 df3e 3978 963d
000001a0: 2c84 8a3e 0a77 1abe 0f9d 01be 88ad 6cbd
000001b0: e38e 0e3e cb6a 993d 1510 903c 61e1 b03e
000001c0: a135 1abd 6b15 ff3e 833f 97be 17db 263c
000001d0: 3894 c5be e691 713e 611b b9be 5ec5 1c3f
000001e0: ab9c 0e3e e4da bf3b 0cec 0fbd 1043 2cbe
000001f0: dd90 423c 38fe 943d 86aa 19be 0057 c53d
00000200: 6ef6 043e 9a01 d23d d622 723d 4c0f 083d
00000210: 4696 6cbe 428b f2bc 2f3f efbd 5a4c ad3d
00000220: 8cbe 7fbe b7ab 6a3d 21bf 1b3e 47d4 0b3e
00000230: cc00 123c 77a2 293e c48a 3f3d c9c8 86bd
00000240: beff f13d baf9 d9be 6b6c b5be 45ef 04be
00000250: 7b97 fa3d e614 823e 4bff 41bb d98b 4f3e
00000260: 164e 1c3e 01d7 913c 3bba cebd 4a03 aa3d
00000270: 643f 763c ead3 6fbd ee5e b4bc 3cec 4b3e
00000280: be40 66be 209f b3bc d7c7 423d 1966 1cbe
00000290: 289d 77be c7ff 11be a8c5 613e 707a 953b
000002a0: 1c18 19bf 7420 1c3e 37b8 68be 2fb9 433e
000002b0: bb0e 87be 536f 6abd d6f7 5dbd 34b1 83be
000002c0: 8a58 cbbd ebfe 323e e1ae 06bf 5991 3fbe
000002d0: 66c6 453e 2e60 0dbe 336a f63e 60ff 23be
000002e0: cadd d3be cbf9 d2bb a47a 393e 7012 60be
000002f0: 134e c1bb b1dd adbe abf6 57bc bb7d 4bbd
00000300: 025f 97bc 3bb2 c33d 541e 52be c7f6 3f3d
00000310: 372e dcbd c544 403e e072 46be e433 de3d
00000320: 6d0b b2bd c403 11bd ca44 9c3d 98b4 6f3e
00000330: a393 033e a1f0 1a3c 9e14 133e cbd2 c6bc
00000340: 9767 77be 6c45 c9be dbf5 15be 7d34 023e
00000350: d964 8f3e 56a9 0f3e 07e1 2cbe 9ffc ad3d
00000360: 3eb8 a93d 0cec b33c b03e 8e3e c6d5 2a3e
00000370: ba40 243d e28d 05bd adb0 83bd 4f7f 4b3e
00000380: 3b76 69bd 782a 253e d425 69bd e12c cebd
00000390: a3fd f03e d558 a8bd 3a96 683e f8a4 65bd
000003a0: 3164 b23e 8b8a 29be a2b7 753d 36da ce3b
000003b0: 5e07 723e c79e ce3d 3ced 5fbd e079 513e
000003c0: c582 c53d cfa1 883e fe2e dd3d 4892 ddbc
000003d0: 1116 b3be 6db4 68be f5b9 3bbe c7a4 1c3e
000003e0: 532e 853d cadc 1c3c aa9d 333e 60ab 31bd
000003f0: b478 bc3c f007 aabc 78b6 26bd 49b2 7e3e
0.00032248042 0.10670494 -0.101051114 -0.061023943 0.031139484 -0.032323975 -0.2437827 0.03386596
0.23932767 0.32702067 -0.052000873 -0.037161157 0.37276185 -0.20580654 -0.014360171 0.14402433
0.06524704 -0.32809964 -0.019176649 0.08468174 -0.18754178 0.0028088368 0.0913441 0.12994733
0.093292736 0.0070430404 0.2696088 0.5081655 -0.058493868 0.17614576 -0.03744191 0.20526572
0.070840776 0.0033493598 0.067367285 -0.006255033 0.13139819 0.12508836 0.13764681 0.023736276
0.07522268 0.1331402 -0.023976862 0.047179174 0.2824084 -0.14053573 0.059846368 -0.02044047
-0.039416753 -0.25172293 0.24577442 0.16474652 0.13327014 -0.3862781 -0.22561288 -0.4368184
-0.13749436 -0.012045525 0.28576812 -0.20683894 -0.011536254 0.35015082 -0.008319891 -0.15893003
0.03265502 0.19920224 -0.12151043 0.12910695 -0.3221624 -0.19716619 0.09239276 -0.060763285
-0.22052185 -0.080231816 0.18100993 -0.14755623 -0.062280633 -0.0098340325 0.0257199 -0.27786663
0.101586096 -0.0849352 -0.2672381 -0.1342095 0.30147284 0.19103537 0.37437 0.24893667
-0.12978522 0.061313074 -0.004363515 0.2086709 -0.16214423 -0.31541774 -0.0037738604 0.19550547
0.06309348 -0.10882966 0.15067437 -0.004809763 0.11016917 -0.04549893 0.4357935 0.073471494
0.27053964 -0.15084472 -0.1265757 -0.05778268 0.13921694 0.07491072 0.017585794 0.3454695
-0.0376488 0.49821028 -0.29540643 0.010184071 -0.38589644 0.23590812 -0.361537 0.6123866
0.13926952 0.005854951 -0.03513722 -0.16822457 0.011875358 0.07275051 -0.15006456 0.096357346
0.1298463 0.10254212 0.059115253 0.033217713 -0.231042 -0.029607419 -0.11681973 0.084618285
-0.24975032 0.057292666 0.15209629 0.13655196 0.008911323 0.16565882 0.046763197 -0.065812655
0.11816357 -0.4257334 -0.3543428 -0.12981899 0.12235924 0.2540657 -0.002960163 0.20268191
0.15264162 0.017802717 -0.100941144 0.083014086 0.015029762 -0.058551706 -0.022017922 0.19914335
-0.22485635 -0.021926463 0.047553863 -0.15273322 -0.24181044 -0.14257728 0.22048056 0.004561715
-0.59802413 0.15246755 -0.22726522 0.1911361 -0.26378426 -0.057235073 -0.054191433 -0.25721133
-0.09928997 0.17480056 -0.52610594 -0.1870779 0.19313964 -0.13806221 0.481279 -0.16015387
-0.4138015 -0.006438469 0.1811319 -0.21882033 -0.0058991998 -0.339582 -0.013181369 -0.049680453
-0.01847792 0.09555479 -0.20519382 0.046866205 -0.10751002 0.18776233 -0.19379759 0.10849741
-0.086935855 -0.03540398 0.07630308 0.23408735 0.12849288 0.009456784 0.14363334 -0.024270436
-0.2416061 -0.39310777 -0.14644568 0.12715335 0.28006628 0.1402944 -0.16882716 0.08495449
0.082870945 0.021963142 0.27782202 0.1668311 0.04010079 -0.032606013 -0.064301826 0.19872783
-0.05699752 0.16129482 -0.05692084 -0.10067154 0.4706851 -0.08220068 0.22713557 -0.05606553
0.34842065 -0.16556756 0.05998958 0.006312634 0.23635623 0.10088878 -0.054669604 0.20456648
0.09644083 0.2668595 0.10799979 -0.027047291 -0.34977773 -0.22725077 -0.18332656 0.15297233
0.06502976 0.009574125 0.17540613 -0.043376327 0.023006774 -0.020755738 -0.04070136 0.24872698

mention_transformer_1/attention/value/add;StatefulPartitionedCall/mention_transformer_1/attention/value/add;mention_transformer_0/attention/value/einsum/Einsum;StatefulPartitionedCall/mention_transformer_0/attention/value/einsum/Einsum;mention_transformer_1/attention/value/einsum/Einsum;StatefulPartitionedCall/mention_transformer_1/attention/value/einsum/Einsum;12926 f4 [32]
00000000: 0894 263e cda0 84be 58fa 9abd 39fb a5bd
00000010: 6e0c 86be 535d 25be 694d 40bd b469 0bbe
00000020: 3e0e 27be 4e15 e4bd 29fe 34be 1c46 583e
00000030: 79b0 a73d 6153 853d 6312 3d3e 01dc 29bd
00000040: 3042 313e 74b9 463c 049f dabe 7413 a93d
00000050: b40b a5bd d89c a33b adc6 e8bd d619 01bd
00000060: d2c1 733e 0d1b 62bd 0c0e 7e3d cf10 f0bd
00000070: 9275 e43d 8a6a 86bd fb1d 45bd 264e 163d
0.16267407 -0.2590393 -0.075672805 -0.081045575 -0.26181358 -0.16148882 -0.046948824 -0.13614541
-0.16314027 -0.11136876 -0.1767508 0.21120495 0.08187956 0.06510044 0.18464045 -0.041469578
0.17310405 0.012129176 -0.42699444 0.082556635 -0.08058873 0.0049930625 -0.113660194 -0.03151878
0.23804405 -0.05520158 0.062025115 -0.11721956 0.11155237 -0.065632895 -0.048124295 0.036695622

mention_transformer_1/bottleneck_input/norm/mul;StatefulPartitionedCall/mention_transformer_1/bottleneck_input/norm/mul;sequential_1/dense_3/Tensordot/shape;StatefulPartitionedCall/sequential_1/dense_3/Tensordot/shape;mention_transformer_1/bottleneck_input/dense/add;StatefulPartitionedCall/mention_transformer_1/bottleneck_input/dense/add;mention_transformer_1/bottleneck_input/dense/einsum/Einsum;StatefulPartitionedCall/mention_transformer_1/bottleneck_input/dense/einsum/Einsum;12902;12904 f4 [32, 32]
00000000: 7a69 173e d4a4 10be cb69 c53d 25b8 fdb9
00000010: 28d6 0f3e 727c f3bd b7c1 123e 8b62 783b
00000020: f2f4 54be 3c98 993e ec73 873d 5de3 823c
00000030: 9e70 13be 608d 54be 5ac2 573d 6a0f a13d
00000040: 31d0 b6bd dbae b43b 5529 ccbb 9371 f83d
00000050: bfe2 98be b052 51be e408 e3bb 6e22 73bd
00000060: 699b 8bbe 1f6f 65bd 8904 48bc 1ec3 dfbc
00000070: 7158 233e d115 243e 68ab 423e 0efa 30be
00000080: 56f4 74be e6c7 473d cf80 f6be 5fbf 503d
00000090: 6a14 a4bd 6286 723e 6337 9abc b324 03bd
000000a0: d09c cebb f638 63be 461c 413e edea 623d
000000b0: b247 813c 14a0 793e 90b8 99bc 35e2 0dbd
000000c0: 06e5 4ebe d388 87bd d539 3fbe 518d 583d
000000d0: 7a1b 7a3e b845 903c 9ddc 82bd 8502 e8bd
000000e0: 286c 56be 52db 1bbd fd74 393e 3f2c 6c3e
000000f0: 7120 75be 25f6 c1bd 7efa adbc 98b3 e2be
00000100: e1f2 dc3e b2ef 65be a732 a0bd efed 5c3d
00000110: b64c ca3d 4935 0c3e 6f99 40be 8d4c 603e
00000120: 2471 f83d 4fb3 7cbe 382f fe3c 99d7 cd3c
00000130: b2e1 88be 74bd 90bd 5557 423d b823 b83e
00000140: 13e1 023f 354d 883e 0fda a43c 6eb6 c5bd
00000150: e290 bf3d 07fd 67bd 8095 14be aafd 25be
00000160: 0d35 22bd a798 80be 8d70 81be 418d 5ebc
00000170: a54c a13e 3087 31be 8c48 dc3e ff48 d1be
00000180: fca3 c03d dfc6 8537 1a7b b03d 739d 57be
00000190: 44dc a43d 1015 9ebd 1d2b 1b3e 1c4a 04bb
000001a0: 84ce cdbd 3627 9e3e a8cf 1abd 57bf cc3d
000001b0: 0f13 57be 7c56 59be 37e7 8b3d 9b1a 973d
000001c0: d1be 163c dee8 dabd c115 e03d d8ef 133e
000001d0: 4061 5abe de95 463c 68a2 e63d aece 62bb
000001e0: 30d3 52bc 98ce 6cbd c7d0 783d f182 203e
000001f0: 7f4e f63d 18c3 06bd ad46 42bd 535a 4dbd
00000200: 63de efbd ea3f 383c c813 2b3e 8530 a03e
00000210: 718e be3d 654e 88be b9f6 953d d022 c3bd
00000220: f4cc 54bd ee84 e23c df9e ac3e 1a9f f0bd
00000230: 49b0 04bd df1f 7fbc d32c 9ebd b965 b1bc
00000240: 7a76 86be a85e bf3c 0cb1 173e f094 be3c
00000250: c499 c2bb 86a2 febd 3865 95bd c9b3 da3d
00000260: ca5a 2c3d e35e d03d 0fa2 d33d db34 e9bd
00000270: 8bd9 e3bb 4d51 0e3d 74c0 59be 2ca4 38be
00000280: eb95 e3be c09d 2ebd 5c0a dfbe 5e12 abbe
00000290: 2e3d a5bd a2da fe3d 1e77 043e f191 65be
000002a0: 6200 1e3e 8bd4 853c f1fb 06bc 597a 633c
000002b0: dc4a 7a3d ee80 1ebe 6526 0d3e fcdd 703d
000002c0: 6364 7b3d 23ef 513d 00bb 8d3d a01c 13be
000002d0: fe32 1f3e 51e4 2ebe 72e5 063d 1478 3dbe
000002e0: b223 cabd 7f29 543e 88a1 a3bc b442 2e3e
000002f0: 0f19 6bbe 01ef 89be bdc4 8abe 926d 423c
00000300: b5d6 c9be 8a09 d2bc 0ce6 adbe cf27 8d3e
00000310: 7f86 8ebe 713d de3e 1365 61be aee7 7e3d
00000320: d4cf 303e 551b 86be 9653 5f3e fff7 6f3e
00000330: 3d5d f63d 954c 0a3f 767a 3abc 2821 33be
00000340: fd1c f23c 89e1 5e3e 07f6 e8be 959a af3d
00000350: b314 d43e 147b 723e 668e 15be becc bcbe
00000360: 41b5 05be 3cfa eabc 856d 49be 6ee7 a63d
00000370: c368 62be b0b4 82be da66 73bb c430 a7bc
00000380: 990e 213e 47eb 20be a26a c4bc aa8f 2a3e
00000390: 2b0e 01be c01c fd3d ed2e b73d bb6e 383e
000003a0: 054d 8ebe 304c 483f 53b4 b83e 081c 203a
000003b0: a455 e7bd 0fa5 ddbc 3dd6 2d3e a25b bb3d
000003c0: b4f4 2ebe 497e 8c3e f53b 8a3e d0c7 133e
000003d0: 8e9f 21bf 3d59 4fbe 8f76 cd3e 81a8 933e
000003e0: 1c4b e5be 8b62 53be 7880 36be 9b6f ebbc
000003f0: bb3e 3d3e b81e b83e 5a5a 913e 8775 58bd
0.1478633 -0.14125377 0.09639319 -0.0004839312 0.14046538 -0.118889704 0.14331709 0.0037900533
-0.20796564 0.29998958 0.06613907 0.015977556 -0.14398429 -0.20757055 0.052675582 0.07864268
-0.08926428 0.0055140085 -0.006230513 0.121310376 -0.29860494 -0.20441699 -0.00692855 -0.059359007
-0.27267006 -0.056014176 -0.0122081125 -0.027314719 0.15951706 0.16023947 0.19010699 -0.17282888
-0.23921332 0.048774622 -0.48145148 0.050963756 -0.08011706 0.23684075 -0.018825239 -0.03201742
-0.0063053146 -0.22189698 0.18858442 0.055399824 0.015781257 0.24377471 -0.018764764 -0.034639556
-0.20204553 -0.06617894 -0.18674405 0.052869145 0.24424544 0.01761137 -0.06389735 -0.113286056
-0.20939696 -0.038050957 0.18111034 0.23063754 -0.23938157 -0.094707765 -0.021237608 -0.44277644
0.43154052 -0.22454718 -0.07822161 0.05393785 0.09877913 0.13692202 -0.1880853 0.21904202
0.12130955 -0.24677776 0.031028375 0.025127219 -0.26734692 -0.07067385 0.047446568 0.3596475
0.51124686 0.26621404 0.02012351 -0.09653936 0.09353806 -0.05663779 -0.14510155 -0.16210046
-0.039601374 -0.25116464 -0.25281182 -0.013583482 0.31503788 -0.17336726 0.430241 -0.40876004
0.094062775 1.5947442e-05 0.0861723 -0.21056156 0.08049825 -0.07718861 0.15153165 -0.0020185774
-0.10049155 0.3088929 -0.037795693 0.09997433 -0.21003364 -0.21224397 0.0683121 0.073781215
0.009200768 -0.10688947 0.10941649 0.14446962 -0.2132616 0.012120692 0.11261445 -0.0034608054
-0.012867734 -0.05781421 0.06074598 0.1567495 0.12026691 -0.0329009 -0.047430683 -0.050134968
-0.11712339 0.011245707 0.16706765 0.31287017 0.09304512 -0.2662231 0.07322449 -0.09528124
-0.05195327 0.027651276 0.3371496 -0.11749096 -0.03239468 -0.0155715635 -0.07723393 -0.02165495
-0.26262265 0.023360565 0.14813632 0.023264378 -0.0059387404 -0.12433343 -0.072946966 0.106788225
0.04207877 0.10174348 0.103336446 -0.113870345 -0.0069534234 0.034745503 -0.21264821 -0.18031377
-0.44450316 -0.04263091 -0.4356259 -0.3341245 -0.0806831 0.12444045 0.12936065 -0.22418953
0.15429834 0.0163367 -0.008238778 0.01388415 0.061106548 -0.1547887 0.13784178 0.05880545
0.061375033 0.05125345 0.06920433 -0.14366388 0.15546796 -0.17079283 0.03293366 -0.18502837
-0.098700896 0.20718955 -0.019974485 0.17017633 -0.22958778 -0.26940158 -0.27103224 0.011866944
-0.3942162 -0.025639314 -0.33964574 0.27569434 -0.27836987 0.4340625 -0.22011213 0.062232666
0.1726678 -0.26192728 0.21809229 0.23434447 0.120295025 0.54023105 -0.011381736 -0.17493117
0.029554838 0.21765722 -0.45500204 0.08574406 0.41422042 0.23679763 -0.14605102 -0.36874956
-0.13057424 -0.028683774 -0.19670685 0.081496105 -0.22110276 -0.2552848 -0.0037140162 -0.020408995
0.15728225 -0.15714751 -0.023976628 0.16656366 -0.12603061 0.12358999 0.08944497 0.1801099
-0.27793136 0.7824125 0.36075076 0.00061076926 -0.112956315 -0.027056245 0.16976257 0.09148337
-0.17085534 0.27440098 0.2699887 0.14431691 -0.63134086 -0.20248885 0.40129516 0.28839496
-0.44783866 -0.2064306 -0.17822444 -0.028739741 0.18480961 0.35960937 0.28389245 -0.052846458

context_transformer_0/attention/value/einsum/Einsum;StatefulPartitionedCall/context_transformer_0/attention/value/einsum/Einsum3 f4 [32, 32]
00000000: 8761 67be 2820 97be 37cf 86be bc6d f5bb
00000010: 0a4c 6bbe c8fd b33c d965 3a3e fd61 6b3d
00000020: f79b 853e f3a5 133d a784 89be 451e 31be
00000030: 476d 8ebd 9858 373d 0eba 163f cd82 a4bd
00000040: 3dd4 6abd 2a5c 3c3d 3e52 aebd 817d b4bc
00000050: c81d 95bd a43d 1ebd 9a12 6dbe f2d4 b0be
00000060: ca97 4c3e cd45 eebe eaf6 d73e e24e 0c3e
00000070: 0745 523e 590d b63d 4716 9ebc 0f64 233e
00000080: ec95 00bf 2644 a5be 2a01 473d b125 6c3e
00000090: 787c adbe ea19 e6bd ff9f 27bf 5614 073f
000000a0: 94b3 fe3e dbab 573f 1cff ee3d 07b1 5dbe
000000b0: e277 513e 1f54 283f 2570 82be 7335 5b3e
000000c0: 0fd9 ebbe 15ab ba3d 6f81 d43e ddaf 92be
000000d0: afd2 a6bc 47c4 0abe e101 433e f4c3 a83e
000000e0: 792d 05bf 5170 83be 520a 0c3e a53a 77be
000000f0: 6a51 d3bd 2c38 583d 21e2 e33c a9fb cdbe
00000100: 0e55 06bc 9029 21bf 7c2b 04be 45c6 f7bd
00000110: cf9c 8ebd 41f2 01be 96a7 063e 3e00 8a3e
00000120: 3f4d 2b3d 9954 843d 49f2 803e 186a 473d
00000130: 95e3 ad3e f23d 28bd 0ebe 37bf 3196 413e
00000140: 6caf 403d 5c1a b9bc cb81 c3be acaf 1abd
00000150: aefa 853d 82f4 18bd 5d47 8b3e f5a0 343f
00000160: 5da3 bf3e 192b 6ebd 3f32 43bf 6ebd 323e
00000170: 44b1 883e 8405 0a3c 9d02 d83b ef05 cc3e
00000180: c949 7d3e dff9 f2be 58eb 813e ccb3 13bd
00000190: cd36 08bf cd09 f73c 7157 d4bd 9644 5bbe
000001a0: 30b0 40be 7c2d 6e3e ce87 3ebe e12c 90bd
000001b0: 180f c83d 1635 dcbe 8782 253f ee06 313e
000001c0: 426f c2bd cced e53d 589b af3d 9b93 d03d
000001d0: 8e14 de3d 258d 40bd 3717 63bf cad9 873c
000001e0: 0497 e23e acc6 f4be a7be 163e 05b7 c53e
000001f0: 3f4f 513e 0f2a 06be 9a6e d83d fee7 8f3c
00000200: 168d 42bf a20d d2be 8ae3 2abe da83 11be
00000210: 572e 20be ffcc 333e 98a1 fc3d f291 8dbd
00000220: 3f7c 1fbc 5e13 b6bd 8acb 4abf 94db 64be
00000230: c0bf fabd 4608 7c3d 565e aabe 6718 b5bd
00000240: 4859 153e 6615 723d 2423 943e a69e 36be
00000250: 519b 133f 1684 d0bd 9608 6dbf e897 02be
00000260: d13b 9a3e f1dd a23e 289f ee3e 6670 adbd
00000270: f779 203e ab8a 7b3c 7b9b 5dbd c9de f33c
00000280: 19c4 1e3e d4a4 9ebd 3b6a 8ebe 183b 99be
00000290: f746 93be 485d 40be ea14 053f 48e1 773e
000002a0: 6b48 10be 30d8 e4be 50db 06be b7a6 b3bc
000002b0: be2d bb3d 845b 9f3d 9018 6a3e 3021 b7bd
000002c0: 8525 65be 8222 0bbd 6bd5 7ebe 138c de3e
000002d0: 9779 2b3e 7604 313e 7460 5f3d b50e 48be
000002e0: 33fa 983e b0d3 29be 5e50 75be aebe 5c3e
000002f0: 7209 ad3e de61 debd b50b 1d3e 5519 2c3f
00000300: ed88 dbbe 64b2 843e 69dc 943d 9c67 51be
00000310: eb05 4bbe 109a 8dbd 1b3c e8bd 2b0d 31be
00000320: a918 dc3c 8614 ecbd 4d24 32bf 63fc b5bc
00000330: 3070 8c3c 0cbf 71bd a971 2f3f 38a1 1bbd
00000340: 2021 84be c455 26be 5663 17be b7cf 8c3d
00000350: efb9 8c3e a42d 283e e444 fb3d d0f4 afbe
00000360: 7c5c 98be 4779 5d3d a08f 743e 1b3d 873e
00000370: 72b1 613e e3df 86bd 04cb 1a3e ef78 913e
00000380: 5843 db3b 5a61 48be 2631 20bf d52f a83e
00000390: 7f18 93be c293 79be 0524 d33e 4bb0 413f
000003a0: a2f7 01be 09a4 4c3e 4538 e23e 8b7b c03d
000003b0: bd85 3ebe d032 283f 6446 453e 9e8b 3ebd
000003c0: a0ea 04bf f826 a23d 2e83 203e 4ced 3abd
000003d0: 02b2 213d 3228 5a3d 9ba0 f83e c877 45bf
000003e0: b55e e03d 80a0 8ebe 966b d93e 01f6 f93c
000003f0: 2afc 073e b173 013e d3ee 62bd 6914 b1bd
-0.22595797 -0.2951672 -0.26329967 -0.007489888 -0.22978225 0.021971598 0.18202914 0.057466496
0.26095554 0.036046933 -0.26859018 -0.17296703 -0.06954437 0.044762224 0.58877647 -0.08032761
-0.057331312 0.045986332 -0.0851178 -0.022032501 -0.07281071 -0.038633004 -0.23151627 -0.34537464
0.19979778 -0.4653763 0.42180568 0.13701966 0.20534144 0.088892646 -0.019297732 0.15956138
-0.5022876 -0.32278556 0.048585095 0.23061253 -0.33884025 -0.112354115 -0.6547851 0.52765405
0.49746382 0.84246606 0.11669752 -0.21649562 0.20455888 0.6575336 -0.25476184 0.21407108
-0.4606404 0.091146626 0.41505 -0.28649798 -0.020364134 -0.13551436 0.19043685 0.32962
-0.5202251 -0.25671628 0.13675812 -0.24143465 -0.10318263 0.052787945 0.027817788 -0.40231064
-0.00819899 -0.62954044 -0.12907213 -0.12098364 -0.069635026 -0.12690069 0.13149866 0.2695331
0.041821714 0.06461448 0.2518485 0.048685163 0.33962694 -0.0410747 -0.71774375 0.1890495
0.047042295 -0.022595577 -0.38184962 -0.03776519 0.06541954 -0.037342556 0.27202883 0.705581
0.37429324 -0.05814657 -0.76248544 0.17455074 0.26697743 0.008424167 0.0065921084 0.39848277
0.24735178 -0.47456262 0.25374866 -0.03606014 -0.5320862 0.03015604 -0.103682406 -0.21412882
-0.1881721 0.23259538 -0.18606493 -0.0703981 0.09768504 -0.4300925 0.64652294 0.172878
-0.09493877 0.11226997 0.08574551 0.101844035 0.10843764 -0.047009606 -0.887073 0.016583342
0.4425584 -0.47807825 0.14721166 0.38616195 0.20440386 -0.13101982 0.105679706 0.017566677
-0.7599653 -0.41026026 -0.16688362 -0.14210454 -0.15642677 0.17558669 0.12335509 -0.069126025
-0.009734212 -0.08890413 -0.79216826 -0.22349387 -0.12243605 0.061531328 -0.33275098 -0.08842545
0.1458484 0.05910244 0.2893306 -0.17833957 0.5765887 -0.101814434 -0.92591226 -0.1275326
0.3012376 0.31809953 0.46605802 -0.08468704 0.15671526 0.015352885 -0.054103356 0.029769318
0.15504493 -0.07746282 -0.27815422 -0.29927897 -0.2876508 -0.18785584 0.5198504 0.24207032
-0.14090125 -0.44696188 -0.13169599 -0.021930082 0.09139584 0.07781127 0.22860932 -0.08941877
-0.22377594 -0.033968456 -0.248861 0.43466243 0.16745602 0.17286858 0.054535344 -0.1953686
0.29878387 -0.16584659 -0.23956439 0.21557114 0.3379627 -0.108585104 0.15336497 0.67226154
-0.42877904 0.2591735 0.072686024 -0.2044968 -0.19826476 -0.06914151 -0.11339589 -0.1729018
0.026867228 -0.11527352 -0.6958664 -0.022215074 0.017143339 -0.059020087 0.68532807 -0.037995547
-0.25806522 -0.16243654 -0.14783987 0.06875556 0.27485606 0.1642366 0.12268999 -0.34366465
-0.2975806 0.054070737 0.23882914 0.26413807 0.22040346 -0.06585672 0.15116507 0.28412578
0.0066913776 -0.19568387 -0.62574995 0.32848993 -0.28729627 -0.24372771 0.41238418 0.75659627
-0.1269212 0.1998445 0.44183555 0.09398564 -0.18605705 0.65702534 0.19265133 -0.046519868
-0.5192051 0.07917589 0.15675041 -0.04563646 0.039476402 0.05326099 0.48560032 -0.77135897
0.10955564 -0.27856827 0.42464894 0.030512812 0.13279787 0.12641789 -0.05540354 -0.08646471

context_transformer_0/kq_shared_bottleneck/dense/einsum/Einsum;StatefulPartitionedCall/context_transformer_0/kq_shared_bottleneck/dense/einsum/Einsum f4 [32, 32]
00000000: 5913 803e 3832 d03e 9ccb 6dbd 3684 cf3d
00000010: 7963 2b3c 0c42 16bc 31dd 2cbe 23c5 a5bc
00000020: 0850 843b b225 3b3e 424c 1d3e 482c cb3d
00000030: 0ad2 e53d d7a0 723e eed4 4e3e 0779 803d
00000040: 8482 e5bd 286f 5cbe cd4d 943d 349e 83bd
00000050: 9f9e b73c 443b c03d 6356 0a3e bb10 023e
00000060: cd6f bbbe 6225 30be cc39 dabe f583 963e
00000070: 6add b6bc 502f 7abe adb6 883e d100 963d
00000080: ab99 2fbe fcac 8dbe 2c49 cf3d 03fc 65be
00000090: df05 2abf 7b19 7abc 1709 a0bc f361 b33e
000000a0: fc2a b6be 77b3 3b3e ec50 693e 10f0 39be
000000b0: 6617 3ebe c9a4 a1bc 01ac ad3e 4b87 243e
000000c0: 428d a6bc 2aac 9abd 78b5 243e 6d75 4f3e
000000d0: c707 523d 4aa7 a0be 6380 9ebe 2b9a 733d
000000e0: 84f7 153f b896 293e 038a 19be a187 00be
000000f0: 73ef 55bd 2c7d ad3d 8bd0 2dbe 265c cc3d
00000100: 3601 cd3e fbb9 f83e 7430 02be a1cb 00bc
00000110: 3618 3d3e 6622 85bd e660 02be e046 4f3d
00000120: 3d54 73bb 6752 9ebd 893f d13d 3852 ca3d
00000130: e1fb d3bd c7bf 2e3e 0b08 263e 6464 c73d
00000140: d0bd a0be 0712 6dbe 2906 55bd 9915 253e
00000150: 55d4 3e3e c90c 613e ad49 053e 3c62 c53d
00000160: 6359 71be 7544 79be d093 babe bd7d 013f
00000170: d48a 98bc 1915 a3be 7493 033e 5e01 91bd
00000180: 59bf c2bd 4cc4 563e 1dc9 573e 3cf9 593d
00000190: a4dd 173d 26c7 c7bd 0bc4 a3bc cefa 7d3d
000001a0: c22b a7be fe6c 55be e370 abbd 1c3c 823d
000001b0: da6f 5e3d 2c01 ce3d 4be7 4d3e 20bf eb3e
000001c0: d00e 0e3e 1237 20be eba3 b93d ead1 a13c
000001d0: b826 0e3e 87fe c33d c581 12bc 6279 b23d
000001e0: 3256 103d 89dd df3c a40d aabe 9b57 363e
000001f0: 4348 a5bd 644e 353d 77f9 8bbd 16cb 053c
00000200: 97b6 573c 2c07 0e3e 15c9 2dbe 471b b43d
00000210: ea93 d93e b2af 833d 1ef4 b53c 135c c0be
00000220: ee5f 823e a82e 26be 20bd 68be e3bd 963d
00000230: f7d4 413e ca5f aebc 1c6a 07bf c4ac abbe
00000240: 5ecb 15bd 84d5 253e 2651 03be 7cb3 95bd
00000250: f4fa 40be 6d75 623e 8a86 583e 806d adbd
00000260: 65f1 b0be 400d fdbc 231d 363e 8ef9 d83d
00000270: 822b cd3d b1f9 9cbd bb9c 9f3d 0982 f33d
00000280: 1273 133e b37e 5a3e 7890 603c 5566 d4bb
00000290: 7305 a33e b1de d1bd 36d9 fb3b 8399 e8bc
000002a0: 1929 5bbe 9d5e 30be 489a 27bd 0251 4b3e
000002b0: 4db7 ac3d 2543 d93d 5664 b33d 1b3d ad3e
000002c0: 5b04 53bd 0eca b6bd 6259 11ba 0e14 d13d
000002d0: c7cc b13d 94bb ec3e d018 733d 9d29 593e
000002e0: 6699 89bd 6612 413d 0997 f6bd 57c2 4f3e
000002f0: 4ca8 c5bd a771 67be ca79 2a3e 6d5d 30bd
00000300: 8483 a1bd 6df4 f53d 6642 633e 0207 953d
00000310: 97aa c6bd 53f5 3f3d b7e0 86bd 51b7 0b3d
00000320: 94d2 283e 1e53 76be ede9 37be e76b f4bd
00000330: e46c 1d3e c9ca c6bd 680e 313d 86d0 b3be
00000340: d860 be3e d5c5 99bd 9b9c 00be 8d81 32be
00000350: 97b7 4dbd 4bf6 2bbe 3a2d ebbb 1c7e d4be
00000360: ffb6 1bbe bea4 43be 7f69 aebe 09ef 593e
00000370: f57e 1c3c d1b0 6a3e 52d4 61be a159 e3bc
00000380: f3a6 b5bb a957 4f3d 9de7 813d 5875 33bc
00000390: 073b 0d3e 4ce2 33be 6829 5e3c a08a 11bd
000003a0: 6ea7 76be 3e05 00be d7a3 8fbd c911 3e3e
000003b0: 7416 863d 9bfa c23d b255 8338 d820 cf3e
000003c0: 2407 d5bd 5a5c 59bd 8358 ca3d 943b fd3d
000003d0: 3240 563d e063 d03e 0687 f33b c0c9 693e
000003e0: eba2 1a3e 1814 3e3e 34d6 50bd bd44 dd3d
000003f0: accf 90bd d054 4abe 6365 433e be52 c43d
0.2501476 0.40663314 -0.058055505 0.10132639 0.010460728 -0.00917102 -0.16881253 -0.020235604
0.004037861 0.18276098 0.15361121 0.09920555 0.112217024 0.23694168 0.20198414 0.06273084
-0.112065345 -0.21526778 0.07241402 -0.06426659 0.022414504 0.09386304 0.13509516 0.12701695
-0.36608735 -0.1720176 -0.4262222 0.2939755 -0.022322375 -0.24432111 0.2670187 0.073243745
-0.17148463 -0.2767104 0.10121378 -0.22459416 -0.6641521 -0.015264864 -0.019535584 0.35035667
-0.3557967 0.18330179 0.22784775 -0.18157983 -0.18563613 -0.019731896 0.3392029 0.16067235
-0.020331029 -0.07552369 0.1608485 0.20259638 0.05127695 -0.3137763 -0.30957326 0.059473198
0.58580804 0.16561401 -0.14994054 -0.12551738 -0.05223031 0.0847114 -0.16974084 0.099785134
0.40039986 0.48579392 -0.12713796 -0.007861049 0.18466267 -0.065007016 -0.12732276 0.0506047
-0.0037129067 -0.07730561 0.102171965 0.09878963 -0.103507765 0.17065345 0.16214006 0.09735945
-0.31394815 -0.23151408 -0.052007828 0.1612152 0.18635686 0.21977533 0.13016386 0.09637877
-0.23569255 -0.2434252 -0.36440897 0.50582486 -0.018620886 -0.31852034 0.12849218 -0.07080339
-0.09509153 0.20973319 0.21072812 0.053216204 0.037076607 -0.097547814 -0.019990942 0.062006764
-0.32650572 -0.20842358 -0.08371141 0.06359121 0.05430589 0.10058817 0.20107763 0.46044254
0.13872838 -0.15646008 0.09064468 0.019753415 0.13881958 0.095700316 -0.008942072 0.08714558
0.035238452 0.027327316 -0.33213532 0.17806856 -0.080704235 0.044264212 -0.06834691 0.008166095
0.013166091 0.13869923 -0.16971238 0.08794265 0.42495662 0.064299956 0.02221113 -0.37570247
0.25463814 -0.16228735 -0.22728395 0.07360437 0.18928896 -0.02128591 -0.52896285 -0.33530247
-0.0365709 0.16194731 -0.12823924 -0.073096246 -0.18845731 0.22115107 0.21145073 -0.08468151
-0.3455917 -0.030890107 0.17784552 0.10594474 0.10018064 -0.07664812 0.07793566 0.118900366
0.14399365 0.21337394 0.013706319 -0.0064819255 0.31840095 -0.10247553 0.0076858057 -0.028393513
-0.21402396 -0.17223592 -0.04091862 0.19855121 0.08433399 0.1060851 0.08759372 0.33835682
-0.051517826 -0.089252576 -0.000554463 0.10208903 0.08681636 0.4623686 0.059349835 0.2120728
-0.067187116 0.047136687 -0.120405264 0.20288979 -0.09651241 -0.22601949 0.16648021 -0.043057848
-0.07886413 0.12009511 0.22193298 0.07276727 -0.09700506 0.04686482 -0.0658583 0.03411037
0.16486579 -0.24055144 -0.1796033 -0.11934643 0.1537357 -0.09706647 0.04322663 -0.35120028
0.3718326 -0.075084366 -0.1255974 -0.17432232 -0.050223913 -0.16793172 -0.0071770223 -0.41502464
-0.15206526 -0.19105813 -0.34064862 0.21282591 0.009551753 0.22919013 -0.2205365 -0.0277527
-0.0055435835 0.05062071 0.06343005 -0.01095327 0.13792048 -0.17566794 0.013559677 -0.035532594
-0.24087307 -0.12502 -0.07013672 0.18561472 0.06547251 0.095204554 6.262529e-05 0.40454745
-0.104017526 -0.05306659 0.098801635 0.12364879 0.052307315 0.407012 0.0074318675 0.22830868
0.15101211 0.18562353 -0.05098553 0.108041264 -0.0707086 -0.19758916 0.19081645 0.09586094

context_transformer_0/attention/attention_output/einsum/Einsum;StatefulPartitionedCall/context_transformer_0/attention/attention_output/einsum/Einsum f4 [32, 32]
00000000: 10cd 60be 1b3d 2f3d 94e6 323d 6c60 da3c
00000010: 197e cfbd 22d7 b9bd 4f3e c2be fb38 923e
00000020: f96d 69be 94a8 76be 7e37 02be 8949 c8be
00000030: ab31 b3be c8f9 733e f74c a4be c815 89be
00000040: fe6a 6bbe ab34 34be 9d80 c9be c030 c43e
00000050: fa4a c3be b90c a63e e812 80be 5017 b6bd
00000060: 1fa8 863e ab3f 283e 5f64 9e3d 15af 4dbe
00000070: 7bc2 c53e 6236 b5be f2b0 93bd 95fd 853e
00000080: 8690 2dbe 5450 d43e 93dc bebe e779 af3e
00000090: e303 8dbe 04e1 11be 4f91 fd3d 4184 8abc
000000a0: c984 8f3c eaa3 91be 405b b5be 8c70 bfbe
000000b0: 54fc aebd 3e51 1ebe 2ba8 84be 8bbf 893e
000000c0: daa8 29bf 73a9 473e eaea 703e d875 863e
000000d0: 272e 99be 4dbe 13bc a981 5cbe b6c9 c43e
000000e0: 428d 303d 33db 083f cf4d 53be 5964 65be
000000f0: 98b7 123e 55b4 6cbe 9515 293e a957 ef3d
00000100: 9d01 a73e 2d17 4b3e 19a4 1cbe cb15 dabd
00000110: 11d2 8a3e 953d 92bd fc96 0a3c bfc2 e73e
00000120: ee09 a43e 501d 843e 1f0f 003e 3d9a 3a3d
00000130: 3aaa 8fbe 2da0 5dbe 9ce1 27be 2386 1ebe
00000140: 1975 54be 1ed1 cb3e efe0 34bf d8c6 fc3c
00000150: 7bfb 2f3e 8255 3c3d 54ab 913d f997 e83e
00000160: 0dcc 1c3e 9b9c 693d d335 5f3e aeac c0bc
00000170: 9f44 9a3e e1e8 c93e 8e4c 673c 465f 8e3e
00000180: 7d38 8b3d eb2d 9dbe aff7 503e fe6b 873d
00000190: ba7c 3b3d 7818 d63e 096c 43bd 3a3f 0e3e
000001a0: e6dc 26be 4dae ad3b b1ce 993c 04b9 fcbd
000001b0: 4d47 2b3e 4b66 20be 9a39 96bd b59f 64be
000001c0: 43bf 153d 8958 413e 82e8 f4be e4e3 5f3c
000001d0: 1458 0bbe 7489 8fbd 3c0e d13e c69f 2ebc
000001e0: 4edd e8bc 6ceb 3bbe 845c 983e a64f 0cbe
000001f0: 29bb 163e 85f1 ffbc d4b4 2ebd 9df3 e1bd
00000200: 0c60 d0bb 7204 093f e6ba b63e 0a5e 103e
00000210: 7d3d 7f3d a325 c0be a808 59bd b8a5 91be
00000220: c7ee 79be 97c2 2cbe 47f4 a2bd 249a 323e
00000230: e7af f23d 3eac ef3e 32cf 0f3f 2cae 883e
00000240: ec20 273e f431 a3be dff9 953e 8485 c43e
00000250: d99d 873e 9709 093e 18ae 713e ac9d d2be
00000260: dd94 8fbe 7093 17bd 49d5 e4bd 394b d93e
00000270: ab30 24be bb2e 10be 4193 02be 2f16 a8be
00000280: 5f83 493c f067 143e e119 4a3e 2326 37bd
00000290: a149 3ebf e2e0 08be 22e0 debe 6078 ab3d
000002a0: 2450 28be e7da c8be adae 0c3e 9741 3e3e
000002b0: 46e6 22be ba60 05bf 41a3 823e 0d1e 9fbc
000002c0: 0732 82be 0c7f 8dbc b6f8 01be 7ac2 04bd
000002d0: 9d9a f6be 3b80 e2bd edbd 933e 6d0b aabd
000002e0: 0366 b4bd b079 573e e640 36bd 5473 09bf
000002f0: d72d a0be a336 06be 7cbb cb3d f261 17be
00000300: 4e41 663e a25c efbd 3c61 24be 738f 4f3e
00000310: a3fc 91be 73f6 053d 4976 6a3e 299a 063e
00000320: 9bea ca3e 8a7b 81be 60f6 5f3e 9635 cf3e
00000330: e89c 1fbc 7e13 62be c9e0 1e3d 3bab 48be
00000340: 3922 edbe 2576 fd3e 46ec 9fbe 7026 e3be
00000350: c284 be3d 6489 cebe 4b07 52bd 8e96 3cbe
00000360: 983b 52bc 95e4 8abe 8f96 f23d 0338 97bd
00000370: 42e4 d0be 62ce ff3e 9024 583e 48bb a43e
00000380: 5d6e 273e 4343 5a3d 5b84 f03e 6216 493e
00000390: 1749 093e 472d f53e 1e49 063e e226 6b3e
000003a0: 4f17 e5be 8af8 15bd 93bd 0d3e 9c00 cdbd
000003b0: d861 a53e 9ba1 a63e 72eb 72be b6c9 8ebe
000003c0: 4b94 19be ed43 7ebe a50e 64be 42f1 f43c
000003d0: 571a 2ebd 1899 8cbe 3e68 133e 38a5 15bf
000003e0: 432d 52be c3c1 39bf 721f c63d d799 223e
000003f0: 550b 3a3d 4431 a4be f81b 2c3e 99e6 c8bd
-0.21953225 0.042782884 0.043676928 0.026657306 -0.10131473 -0.090742365 -0.37938163 0.28559098
-0.22795857 -0.24087745 -0.12716481 -0.39118603 -0.3499883 0.23825753 -0.3208997 -0.2677443
-0.22990033 -0.17598216 -0.39355937 0.38318443 -0.3814314 0.32431582 -0.25014424 -0.08891165
0.2630014 0.16430537 0.07733988 -0.2008632 0.3862494 -0.35393053 -0.07211484 0.2617003
-0.16949663 0.41467535 -0.3727766 0.34272692 -0.27542028 -0.14245993 0.12381231 -0.016908767
0.017519372 -0.2844537 -0.3542118 -0.37390554 -0.085442215 -0.15460679 -0.25909552 0.26903948
-0.6627327 0.19498233 0.23527113 0.26261783 -0.29918024 -0.009017539 -0.21533836 0.38435143
0.043103464 0.5345947 -0.2063515 -0.22401561 0.14327848 -0.23115666 0.16512139 0.11686642
0.32618418 0.1983306 -0.15296973 -0.10648688 0.27113393 -0.07140652 0.008458849 0.45265767
0.32038826 0.25803614 0.12505768 0.04555725 -0.2805956 -0.21643133 -0.16394657 -0.15480857
-0.20747794 0.3980798 -0.7065572 0.030856535 0.17185776 0.045979984 0.07112756 0.45428446
0.15312214 0.057034116 0.21797876 -0.02351984 0.3013048 0.39435485 0.014117373 0.27807063
0.06797884 -0.30699095 0.20406984 0.06612395 0.045773245 0.41815543 -0.047710452 0.13891307
-0.16295204 0.0053003193 0.018775316 -0.123399764 0.16726418 -0.15664022 -0.073352054 -0.22326548
0.036559355 0.1888143 -0.4783364 0.013665173 -0.13607818 -0.07008639 0.40831172 -0.01065821
-0.028425839 -0.18351525 0.29758084 -0.13702258 0.14719833 -0.031243095 -0.04265292 -0.11032794
-0.006359106 0.5352241 0.35689467 0.14098373 0.0623145 -0.37528715 -0.05298677 -0.28446746
-0.24407493 -0.16871105 -0.079567485 0.17441612 0.11849957 0.46811098 0.5617553 0.26695383
0.16321152 -0.3187405 0.292922 0.38383114 0.26487616 0.13382564 0.23601568 -0.4113592
-0.2804326 -0.03700584 -0.111734934 0.42440203 -0.1603419 -0.14080326 -0.12751485 -0.32829425
0.012299388 0.14492774 0.19736435 -0.044714104 -0.743311 -0.13367036 -0.43530375 0.08372569
-0.16436821 -0.3922951 0.13738509 0.18579708 -0.15908155 -0.5210072 0.25515178 -0.019423509
-0.25428793 -0.017272495 -0.12692532 -0.03241203 -0.48164836 -0.11059614 0.2885584 -0.083029605
-0.0880852 0.21042514 -0.044495486 -0.536916 -0.31284973 -0.1310678 0.09947869 -0.14783457
0.2248585 -0.1168759 -0.16052717 0.20269565 -0.2851306 0.032705735 0.22896685 0.13144745
0.39632115 -0.25289565 0.21871328 0.4047057 -0.009741999 -0.22077748 0.03878859 -0.19596569
-0.46315172 0.495042 -0.3123495 -0.44365263 0.09302665 -0.40339196 -0.051276486 -0.18416807
-0.012831591 -0.2712752 0.11845123 -0.0738373 -0.40799147 0.49962145 0.21107697 0.32174134
0.16350694 0.053286802 0.4697598 0.19637445 0.13406788 0.47886106 0.1311383 0.22964051
-0.44744346 -0.03661398 0.13841848 -0.10009882 0.3230121 0.3254517 -0.23722628 -0.27888268
-0.14997976 -0.24830599 -0.22271211 0.029900197 -0.04250559 -0.2746055 0.14395234 -0.5845523
-0.20525078 -0.7256128 0.096739665 0.15878998 0.045420963 -0.32068837 0.16807544 -0.09809608
